.config/google-chrome/Default/optimization_guide_prediction_model_downloads/2de264f0-7806-4a62-8025-c4689d3f10af/model.tflite (tflite, 410364 bytes, 166 tensors)

context_transformer_0/bottleneck_input/norm/add f4 [32]
0	0x3dc3e2b5	0.09564725
1	0xbe8c9832	-0.27459866
2	0xbdd3333d	-0.10312507
3	0xbdc3ec6a	-0.09566577
4	0x3ce8b218	0.028405234
5	0xbd44a32d	-0.04800718
6	0xbbfccb72	-0.0077146823
7	0x3c8a084b	0.016849658
8	0xbd5e1dae	-0.054227524
9	0x3d84e114	0.06488243
10	0x3dc71248	0.09720284
11	0xbe87ef72	-0.2654987
12	0x3c64d97e	0.01396787
13	0x3ac21d6c	0.0014809794
14	0x3dd5e03a	0.104431584
15	0xbdbb5fa5	-0.09149102
16	0xba1f4ef1	-0.0006077132
17	0xbe08fb9c	-0.13377231
18	0xbda06018	-0.078308284
19	0xbdafc900	-0.085832596
20	0xbd93ec5a	-0.07222815
21	0x3bbfc0d6	0.0058518453
22	0xbc765e5f	-0.015037148
23	0xbe682648	-0.22670853
24	0x3dd98bbc	0.10622355
25	0xbd5378fe	-0.05162906
26	0xbe0d65bf	-0.13808344
27	0xbdf9a5ea	-0.12189849
28	0x3dc85b0e	0.09782992
29	0x3dd47831	0.10374487
30	0x3d77f539	0.060536597
31	0x3e3e4b88	0.185835

context_transformer_1/bottleneck_input/norm/add f4 [32]
0	0xbd068ab6	-0.03284713
1	0xbd838571	-0.06421936
2	0x3d25f5f9	0.04051778
3	0x3d867a16	0.06566255
4	0xbd957f5e	-0.07299684
5	0x3dc5db40	0.09660959
6	0x3dd7eff0	0.10543811
7	0x3ddfd2f4	0.10928908
8	0xbe3f0d6c	-0.18657464
9	0xbe4ff4f7	-0.2030829
10	0xbe049cda	-0.12950459
11	0x3cd48aea	0.025945146
12	0x3d822efc	0.06356618
13	0xbcd60f7c	-0.02613043
14	0xbeeb0303	-0.45900735
15	0x3d1383c3	0.03601433
16	0xbbf82f70	-0.0075740144
17	0x3d5637aa	0.05229918
18	0x3dfb1040	0.12258959
19	0x3cec760d	0.028864885
20	0x3b96c7ca	0.0046014534
21	0xbd3c9eca	-0.04604987
22	0xbd2c1a70	-0.0420174
23	0x3e1d1952	0.1534169
24	0x3e3ea2a4	0.1861673
25	0x3e857be3	0.2607108
26	0xbcf2269d	-0.029559428
27	0x3d92ca83	0.07167532
28	0xbdb7f1cc	-0.08981666
29	0xbce4f44c	-0.027948521
30	0x3c2eca95	0.0106684165
31	0x3d983445	0.074318446

mention_transformer_0/bottleneck_input/norm/add f4 [32]
0	0xbd6ce6a2	-0.057837136
1	0x3ddb9e9c	0.10723612
2	0x3d99b59d	0.07505343
3	0xbe0f13f8	-0.13972461
4	0x3e5b284b	0.2140209
5	0xbda0b2ce	-0.07846604
6	0x3e3c4036	0.1838387
7	0x3e174d78	0.14775646
8	0xbe1e7d3a	-0.15477458
9	0x3e0707ae	0.13186523
10	0x3e1dea84	0.15421492
11	0x3dc828f2	0.09773435
12	0x3e497b9f	0.19676064
13	0xbca46707	-0.020068659
14	0xbd0f8eae	-0.03504818
15	0x3d86d705	0.065839805
16	0xbcf05b38	-0.029340371
17	0x3db16d56	0.08663432
18	0xbdb733fc	-0.08945462
19	0xbcf6cbe6	-0.030126523
20	0x3e693bbe	0.22776696
21	0x3e4b29fe	0.19840237
22	0xbe34f52c	-0.1767165
23	0xbd9b5b34	-0.07585755
24	0x3d81bfe8	0.06335431
25	0x3ccd6f27	0.025077416
26	0x3c5ba58a	0.013406167
27	0x3e140802	0.1445618
28	0xbd24fb40	-0.040278673
29	0xbc3b81b1	-0.011444495
30	0xbd64bb43	-0.05584265
31	0x3c63b87c	0.013898965

mention_transformer_1/bottleneck_input/norm/add f4 [32]
0	0xbe1be540	-0.1522417
1	0xbd68f922	-0.056878217
2	0x3db0ce3a	0.086330846
3	0x3d2ccd92	0.042188235
4	0xbe03314c	-0.12811774
5	0x3d080852	0.03321106
6	0xbddf7714	-0.10911384
7	0x3d89f3fd	0.0673599
8	0x3e52e6c8	0.20595849
9	0xbd4864c6	-0.04892423
10	0xbe0c2d6b	-0.136892
11	0x3e25cc3b	0.16191189
12	0xbe9e4cdb	-0.3091801
13	0xbe59d6bb	-0.2127332
14	0xbe218369	-0.15772785
15	0x3dde3a17	0.108509235
16	0x3c928aec	0.017888509
17	0xbee92866	-0.45538634
18	0xbe977247	-0.29579374
19	0x3dfe6df6	0.12423317
20	0x3e0b6c9a	0.13615647
21	0x3d038ac8	0.032114774
22	0xbd62439e	-0.055240266
23	0xbdcd7a4e	-0.100330934
24	0x3e93d674	0.28874552
25	0x3ea42c28	0.3206494
26	0x3ec2d636	0.38054055
27	0x3d718090	0.058960497
28	0x3e039130	0.12848353
29	0xbdaeb3be	-0.08530377
30	0xbe281cae	-0.1641719
31	0x3e9811f9	0.29701212

context_transformer_0/attention/value/add;context_transformer_0/attention/value/einsum/Einsum;context_transformer_0/attention/value/add/ReadVariableOp/resource f4 [32]
0	0xbd3a3fcd	-0.045471
1	0x3d9cb1f7	0.076511316
2	0xbdd83a4f	-0.105579965
3	0x3da005bf	0.07813596
4	0x3c4130c3	0.011791411
5	0x3d8dfdc3	0.06933167
6	0xbda03a85	-0.07823662
7	0xbd827fe6	-0.06372051
8	0x3d8ee1ca	0.069766596
9	0x3da301f4	0.07959357
10	0x3b7866c5	0.0037903052
11	0x3d001022	0.031265385
12	0x3d9c28ce	0.076249704
13	0x3dd1d6ea	0.1024607
14	0x3d9942eb	0.07483467
15	0xbc726577	-0.014794699
16	0x3c9f9429	0.019479828
17	0xbd5f103d	-0.054458845
18	0x3d58d051	0.05293304
19	0xbd24c759	-0.040229175
20	0x3d18a960	0.037270904
21	0x3cb5cba8	0.022191837
22	0xbcef5b57	-0.029218359
23	0xbd2e4d7e	-0.04255437
24	0x3c7d123f	0.015446245
25	0xbd74c0ef	-0.05975431
26	0xbbbf01d2	-0.0058290744
27	0x3cde7c21	0.027158799
28	0xbd445731	-0.047934715
29	0xbd6bfe63	-0.05761565
30	0xbcbe5371	-0.023233147
31	0xbd783e32	-0.06060619

context_transformer_0/bottleneck_input/norm/mul f4 [32, 32]
0	0xbea6b45d	-0.3255948
1	0xbf18065b	-0.593847
2	0xbe6e1cca	-0.2325317
3	0x3d97f25d	0.07419274
4	0x3e7cd700	0.24691391
5	0xbece2a05	-0.40266433
6	0xbebb98c3	-0.36639985
7	0xbe0b120f	-0.13581108
8	0x3e44dd9b	0.19225161
9	0x3ef69312	0.4815908
10	0x3d635755	0.05550321
11	0x3e4c7d8b	0.19969766
12	0x3e5d92ea	0.21638075
13	0x3dfea0ed	0.12433038
14	0x3c88f8ca	0.016720194
15	0x3ea756d6	0.32683438
16	0x3d683bd5	0.056697685
17	0xbe67855f	-0.22609471
18	0xbe4e50bc	-0.20147985
19	0x3e1236b8	0.14278686
20	0xbef0c8f6	-0.4702832
21	0xbe9a20ab	-0.3010305
22	0x3ea2c159	0.31788138
23	0xbddf9390	-0.10916817
24	0x3ead01bb	0.33790383
25	0xbe047c0f	-0.1293795
26	0xbe25b626	-0.16182765
27	0xbe98b43d	-0.2982501
28	0xbe894a55	-0.26814523
29	0xbcab427b	-0.020905724
30	0x3d8c8302	0.06860925
31	0x3e48f53c	0.196248
32	0xbe2f3eaa	-0.17113748
33	0xbdd3a3ce	-0.10333978
34	0x3d4338c5	0.04766156
35	0x3e5aa107	0.2135049
36	0xbd88d58d	-0.066813566
37	0xbd611f7b	-0.054961663
38	0x3dc637d3	0.096786164
39	0x3e63313c	0.2218675
40	0xbe292ae4	-0.16520268
41	0xbdfdaa5a	-0.123860076
42	0xbd4df80d	-0.050285388
43	0xbe94a54f	-0.2903237
44	0xbdf6e1b7	-0.120547704
45	0xbdbec26c	-0.09314427
46	0x3dc4123b	0.0957379
47	0xbe0a2e51	-0.13494231
48	0x3e6ff22a	0.23432222
49	0x3e43d8d6	0.19125685
50	0x3d662194	0.056184366
51	0x3e574e55	0.21025975
52	0xbe8de06d	-0.27710286
53	0x3d492eac	0.049116775
54	0x3dee1dbf	0.11626767
55	0xbd599cfe	-0.053128235
56	0xbbe4b7e0	-0.0069799274
57	0x3e08680e	0.13320944
58	0xbd9e416c	-0.07727322
59	0x3e54193f	0.20712756
60	0x3e137605	0.1440049
61	0xbd531ff3	-0.05154414
62	0xbe57dde8	-0.21080744
63	0xbe1de184	-0.15418059
64	0xbdae5e05	-0.085140266
65	0x3e1d9257	0.15387855
66	0xbe1f309d	-0.15545888
67	0x3e5a42f7	0.21314608
68	0x3db45a4b	0.088062845
69	0x3e5f569c	0.21810383
70	0xbdc0fad7	-0.09422844
71	0xbe3da318	-0.18519247
72	0x3e61356a	0.21993032
73	0x3e8ed3b7	0.278959
74	0x3d28f9f2	0.04125399
75	0x3e94f227	0.29090998
76	0x3c721132	0.0147746075
77	0xbd96558f	-0.07340538
78	0x3d2c9051	0.04212982
79	0xbe139a33	-0.14414291
80	0x3d82c2e3	0.06384828
81	0x3e8a0d50	0.26963282
82	0xbdbc35f5	-0.09189979
83	0x3e987a2b	0.29780707
84	0x3e7cee7c	0.2470035
85	0xbd86ddf3	-0.06585302
86	0x3e4a6a90	0.19767213
87	0x3e4caea9	0.19988503
88	0xbd414fc3	-0.047195207
89	0xbd9880da	-0.074464515
90	0xbe1de3fd	-0.15419002
91	0xbdf0dcc8	-0.11760861
92	0x3e4d59e5	0.20053823
93	0x3ce0658b	0.02739217
94	0xbad5584f	-0.0016276928
95	0xbdfed3a6	-0.124427125
96	0xbebeaed0	-0.37242746
97	0xbf1cd7ea	-0.6126696
98	0x3cb5c65f	0.022189317
99	0x3f09f1b7	0.5388445
100	0xbcea3901	-0.028591635
101	0xbf2ef407	-0.68341106
102	0xbeb235f8	-0.348068
103	0xbe9d351a	-0.30704576
104	0xbe161621	-0.14656879
105	0x3f0e8240	0.55667496
106	0xbf084b96	-0.53240335
107	0x3f1bbdcc	0.6083648
108	0xbccef923	-0.025265282
109	0x3e31d46d	0.1736619
110	0x3e432084	0.19055372
111	0xbd9fecd8	-0.07808846
112	0xbd00ba31	-0.031427566
113	0x3f20018b	0.62502354
114	0x3dd65228	0.10464889
115	0x3e976f85	0.2957727
116	0x3f9bf736	1.2184818
117	0xbd16a849	-0.036781583
118	0x3d3855f1	0.045003835
119	0xbeb742ab	-0.3579305
120	0xbe3a8d29	-0.18217911
121	0xbea5b83d	-0.32367125
122	0x3ddda7fc	0.10823056
123	0xbe911cd9	-0.28342322
124	0x3cb1cf92	0.021705423
125	0x3dced84e	0.100998506
126	0x3ea08e0f	0.31358382
127	0x3e178320	0.14796114
128	0x3e84cfe9	0.25939873
129	0x3dd570b1	0.10421885
130	0x3e3f88c6	0.18704519
131	0xbd7c4be7	-0.061595824
132	0xbcc3ca96	-0.023900311
133	0x3df8040f	0.12110149
134	0x3d5fca04	0.054636016
135	0xbdce7a2c	-0.10081896
136	0xbe76cb3a	-0.24100962
137	0xbdbe05c4	-0.092784435
138	0x3e09bee7	0.1345173
139	0x3e13e808	0.14443982
140	0xbced0112	-0.028931174
141	0x3c36b3f9	0.011151307
142	0xbcf7a80a	-0.030231494
143	0xbd62e4cd	-0.055393983
144	0xbc845a5a	-0.016156364
145	0xbcc98874	-0.024601199
146	0x3e6f43c1	0.2336569
147	0xbe46d672	-0.19417742
148	0x3d0c3093	0.03422601
149	0x3d8818e1	0.0664537
150	0x3dad9ac2	0.08476783
151	0xbe3590a0	-0.17730951
152	0x3d611738	0.054953784
153	0x3df62088	0.120179236
154	0x3d9b7db5	0.07592336
155	0x3e79f0a7	0.24408208
156	0xbd158420	-0.036502957
157	0x3da46369	0.080267735
158	0x3d96738e	0.07346259
159	0xbd8e61be	-0.069522366
160	0x3dccecc1	0.10006095
161	0x3cc9da6c	0.024640284
162	0x3bb61814	0.0055570696
163	0xbc944dd2	-0.018103514
164	0x3cedd95d	0.029034311
165	0x3e0c4dfa	0.1370162
166	0xbc7561e7	-0.014976955
167	0x3e543f5b	0.20727293
168	0xbd1ca80c	-0.0382462
169	0xbd449b2e	-0.047999553
170	0xbd972334	-0.07379761
171	0xbd3759af	-0.044763263
172	0xbc1ba404	-0.009499554
173	0x3d8b8c8d	0.06813917
174	0xbcb8deb7	-0.022567136
175	0x3d55a6ed	0.052161146
176	0xbd9c5741	-0.0763383
177	0x3d500756	0.050788246
178	0xbd3e410d	-0.046448756
179	0x3ca58606	0.020205509
180	0xba5d4878	-0.00084412796
181	0xbd836a8e	-0.06416808
182	0x3cfa277b	0.030536404
183	0xbd8275a0	-0.063700914
184	0x3db085c7	0.08619266
185	0xbd125908	-0.035729438
186	0x3c8a6b83	0.016896969
187	0x3e0c25cb	0.13686292
188	0x3c4fe454	0.012688715
189	0xbd049ee2	-0.032378085
190	0x3bd23ee5	0.006416189
191	0xbd0591fa	-0.032609917
192	0xbdc964f5	-0.09833709
193	0xbe473df8	-0.19457233
194	0x3dc2dc2d	0.095146514
195	0x3dd6f7f4	0.10496512
196	0xbd82f2e6	-0.063939855
197	0xbd25504e	-0.040359788
198	0x3da2d63c	0.07951018
199	0xbec1e620	-0.37870884
200	0x3e90dd27	0.28293726
201	0xbcc4585c	-0.023967914
202	0xbe508e65	-0.20366819
203	0x3e8802e8	0.26564717
204	0xbd89ca46	-0.06728034
205	0x3ebe9310	0.37221575
206	0x3ab206c7	0.0013582342
207	0x3dec7cf3	0.1154727
208	0xbe699f34	-0.22814637
209	0x3e4c3117	0.19940601
210	0x3cb23c2d	0.02175721
211	0x3e961664	0.29313958
212	0x3e750b56	0.23930106
213	0xbe01fdbd	-0.1269445
214	0x3da6b11b	0.08139249
215	0xbe3f9ca3	-0.18712096
216	0x3e1edb24	0.15513283
217	0xbe620340	-0.22071552
218	0xbd88cede	-0.06680082
219	0xbdfc00ce	-0.12304841
220	0x3e082ce6	0.13298377
221	0xbd366298	-0.04452762
222	0xbe65b147	-0.22430907
223	0x3d290c44	0.041271463
224	0x3f514fe6	0.8176254
225	0x3f30dbd5	0.6908544
226	0x3d09c8bc	0.0336387
227	0xbdc21fa3	-0.094786905
228	0xbedd1008	-0.43176293
229	0x3e8867ce	0.26641697
230	0xbe3f72bb	-0.1869611
231	0x3f0a99bf	0.5414085
232	0xbed3987c	-0.41327274
233	0xbef3f3f4	-0.4764706
234	0x3e89c468	0.2690766
235	0xbe8f28f8	-0.27960944
236	0xbdd1596e	-0.102221355
237	0x3e91d3b1	0.2848182
238	0x3e870a1c	0.263749
239	0x3e066255	0.13123448
240	0xbf28731e	-0.65800655
241	0xbe564604	-0.20925146
242	0xbdc3b642	-0.09556247
243	0xbee647c3	-0.44976625
244	0x3df421f1	0.11920536
245	0x3e9a934c	0.30190504
246	0xbf0b4d64	-0.54414964
247	0x3d1c55cc	0.03816776
248	0xbe8bdfa0	-0.2731905
249	0xbd5e4b98	-0.05427131
250	0x3eb2787e	0.34857553
251	0xbd897726	-0.06712179
252	0x3e27813e	0.16357896
253	0x3dedebba	0.11617227
254	0x3de72caf	0.112878196
255	0xbe7a47ae	-0.24441406

context_transformer_0/kq_shared_bottleneck/norm/mul;context_transformer_0/kq_shared_bottleneck/norm/add;context_transformer_0/attention/key/einsum/Einsum;context_transformer_0/attention/key/add;context_transformer_0/attention/value/einsum/Einsum;context_transformer_0/attention/key/add/ReadVariableOp/resource f4 [32]
0	0xbe20f52a	-0.15718523
1	0xbe097124	-0.13422066
2	0xbd59ab80	-0.05314207
3	0x3e097c7b	0.13426392
4	0xbd622f89	-0.055221114
5	0xbd8a0b45	-0.06740431
6	0x3e0b4538	0.13600624
7	0xbd1a3149	-0.03764466
8	0xbde76a27	-0.11299544
9	0xbd46faa7	-0.048578884
10	0x3df55d45	0.119806804
11	0xbdf84130	-0.121218085
12	0x3d74c777	0.059760537
13	0xbd859025	-0.06521634
14	0x3cc449b9	0.023960935
15	0xbe099542	-0.13435844
16	0xbd0ef1d2	-0.034898587
17	0xbd525869	-0.051353846
18	0xbcd80245	-0.02636827
19	0xbcfbbd27	-0.030729843
20	0xbcd76dc7	-0.026297463
21	0xbcf62852	-0.030048523
22	0xbd1c46d9	-0.038153503
23	0x3cf3c5c3	0.029757386
24	0xbd96f196	-0.073702976
25	0x3dd13f92	0.10217203
26	0x3d610f35	0.054946143
27	0xbd30e285	-0.043184776
28	0x3dfc6f86	0.12325959
29	0x3d89f5af	0.067363136
30	0xbd67f049	-0.05662564
31	0xbd3121f2	-0.043245263

context_transformer_0/kq_shared_bottleneck/norm/mul;context_transformer_0/kq_shared_bottleneck/norm/add;context_transformer_0/attention/key/einsum/Einsum;context_transformer_0/attention/key/add;context_transformer_0/attention/value/einsum/Einsum;context_transformer_0/attention/key/add/ReadVariableOp/resource1 f4 [32, 32]
0	0x3e2a5a37	0.16635977
1	0xbe2c5efe	-0.16833112
2	0xbd4d2ed8	-0.0500935
3	0x3b26e863	0.0025468103
4	0xbc78b624	-0.015180144
5	0x3e3705b9	0.17873277
6	0x3cb738a3	0.022365874
7	0x3d03a1e1	0.0321368
8	0xbda42bb9	-0.08016152
9	0x3dcbab29	0.099447556
10	0xbd492405	-0.049106617
11	0xbec407ff	-0.3828735
12	0xbd0ab27c	-0.033861622
13	0xbd02fa00	-0.0319767
14	0xbd95d2b4	-0.07315579
15	0xbd81ce7a	-0.063382104
16	0xbc8352f1	-0.01603076
17	0x3a459737	0.00075374864
18	0x3c468b14	0.01211812
19	0x3de36ecb	0.111051165
20	0xbe4c1ea2	-0.1993356
21	0x3d9e1fdc	0.077209204
22	0x3d3aea9a	0.04563389
23	0x3eabac1d	0.3352975
24	0x3c17e9a1	0.00927201
25	0xbe37be58	-0.17943704
26	0x3ccf33a7	0.025293184
27	0xbdae8126	-0.08520727
28	0xbc0f16d3	-0.008733469
29	0x3d054d6e	0.032544546
30	0xbc4d0380	-0.0125130415
31	0xbe12ba3d	-0.14328857
32	0x3c08ed60	0.008357376
33	0xbe4bcf6f	-0.19903348
34	0x3d6752ed	0.05647557
35	0xbdd59a98	-0.10429877
36	0xbdcd16b5	-0.10014097
37	0xbcb3e392	-0.0219591
38	0xbeb799f5	-0.35859647
39	0x3d460138	0.048341006
40	0x3d21775d	0.039420474
41	0x3eb74016	0.3579108
42	0xbdb79f66	-0.0896595
43	0x3dac3a39	0.084095426
44	0x3dcef6d3	0.10105672
45	0x3d94a1fe	0.0725746
46	0xbc2f7a06	-0.010710245
47	0x3d01dcdf	0.03170478
48	0xbd96f5e3	-0.07371118
49	0x3d679866	0.056541823
50	0x3dcc4230	0.09973562
51	0x3d8b5eef	0.068052165
52	0xbe5ba1b8	-0.2144841
53	0x3daad76f	0.08341872
54	0xbda54867	-0.0807045
55	0x3d3e12a5	0.0464045
56	0xbd8a4b5e	-0.067526564
57	0xbe8522e5	-0.26003185
58	0xbc736ca8	-0.014857449
59	0xbe654e62	-0.22393182
60	0xbd8486d5	-0.0647103
61	0xba4e3117	-0.00078655913
62	0x3d23537a	0.03987453
63	0xbba068ba	-0.004895297
64	0xbdaf4b51	-0.08559287
65	0xbe8c225e	-0.2736997
66	0xbdb29855	-0.08720461
67	0xbda33115	-0.07968346
68	0xbd8cab61	-0.068686254
69	0x3dfdf90b	0.12401017
70	0xbdd05e0e	-0.101741895
71	0x3ccba9f8	0.02486132
72	0x3d7ed414	0.062213972
73	0x3db1cace	0.0868126
74	0xbdb5024e	-0.0883833
75	0x394bcc93	0.00019435798
76	0x3d6d0bb9	0.057872508
77	0x3d6c40a7	0.057678845
78	0x3dc0d3ca	0.094153956
79	0x3d868a21	0.06569315
80	0xbd578e10	-0.052625716
81	0xba9aecfd	-0.0011819896
82	0x3da2e314	0.07953468
83	0xbd762c3f	-0.06010079
84	0xbe7ae17d	-0.2450008
85	0x3e4d1f20	0.20031404
86	0xbca15351	-0.019693049
87	0x3c375a31	0.011190937
88	0xbc8dc823	-0.017307347
89	0xbd9994c6	-0.074990794
90	0x3c8b9b3f	0.0170418
91	0xbda71e67	-0.08160096
92	0xbbf73d68	-0.007545162
93	0xbcaca050	-0.021072537
94	0x3cd9893c	0.026554696
95	0xbcd45a11	-0.025921853
96	0x3bdd5b10	0.0067552403
97	0x3e629ff2	0.22131327
98	0xb93cb6f8	-0.00017997238
99	0x3dd0e856	0.102005646
100	0x3d7625de	0.060094707
101	0x3d8708ca	0.06593473
102	0x3ea9ca1a	0.33162004
103	0xbd21c11b	-0.0394908
104	0xbd8c89a7	-0.068621926
105	0xbea302d4	-0.31838095
106	0x3d68637d	0.056735504
107	0xbe0450dd	-0.12921472
108	0xbdb1cb1b	-0.086813174
109	0xbcaed187	-0.021340145
110	0xbcda18fc	-0.026623242
111	0xbd0909ef	-0.03345674
112	0x3d53c2ea	0.051699556
113	0xbc3c9c1f	-0.011511832
114	0xbdb070e0	-0.08615279
115	0xbdae7d30	-0.08519971
116	0x3e7aa2fe	0.24476239
117	0xbd8676ac	-0.065656036
118	0x3d415236	0.047197543
119	0x3c5ce936	0.013483336
120	0x3d251e2d	0.04031198
121	0x3e820247	0.25392362
122	0xbcda175a	-0.026622463
123	0x3e4cde0e	0.20006582
124	0x3d4aa702	0.049475677
125	0xbc1baf58	-0.009502254
126	0xbd037c29	-0.03210083
127	0x3c3babe7	0.011454559
128	0x3cfadbda	0.030622412
129	0xbd0d9e69	-0.0345749
130	0xbdecd42a	-0.115639046
131	0x3d916c72	0.071007624
132	0x3ce6c0cb	0.028168103
133	0x3e481000	0.19537354
134	0x3e61b202	0.22040561
135	0xbd63bf98	-0.05560264
136	0xbddcd264	-0.10782316
137	0xbdd1c881	-0.10243321
138	0x3ab98109	0.0014152835
139	0xbee3404b	-0.4438499
140	0xbd4a2064	-0.049347296
141	0xbd81c85c	-0.06337044
142	0xbd5b7b21	-0.05358422
143	0xbccc8f64	-0.024970718
144	0x3d70c86a	0.05878488
145	0xbc3028d6	-0.010751924
146	0xbd4facae	-0.05070179
147	0x3d5628ec	0.05228512
148	0x3cbc3ebc	0.022979133
149	0x3c657764	0.014005516
150	0x3dba92e5	0.09110049
151	0x3ea4716b	0.3211778
152	0x3d7dcca1	0.061962727
153	0x3cf6e2af	0.030137388
154	0x3d2b2214	0.041780546
155	0x3d4ce2e9	0.050021086
156	0x3d06a7da	0.03287492
157	0x3c6b70a0	0.014370114
158	0xbcd7fa42	-0.02636445
159	0xbe0d2985	-0.1378537
160	0x3b37d347	0.0028049515
161	0xbde570f0	-0.11203182
162	0x3cfb2a46	0.030659806
163	0xbdbab12b	-0.09115823
164	0xbd965c38	-0.07341808
165	0xbdfa1fa2	-0.12213065
166	0xbea6ba0e	-0.32563823
167	0x3d72a02e	0.05923479
168	0x3d882438	0.06647533
169	0x3e8e73e4	0.27822793
170	0xbd3bd05f	-0.045853015
171	0x3e9594f7	0.29215214
172	0x3dc452f0	0.095861316
173	0x3d3967d8	0.04526505
174	0x3cd1aebe	0.025596019
175	0x3bf0f3fb	0.0073533035
176	0xbdb963fb	-0.09052273
177	0x3c2efd45	0.010680501
178	0x3db39057	0.08767765
179	0xbc944403	-0.018098837
180	0xbe1dd238	-0.15412223
181	0x3d465a09	0.048425708
182	0xbe03a2c7	-0.12855063
183	0xbe07f58d	-0.13277264
184	0xbd8c4ed3	-0.06850972
185	0xbe467013	-0.1937869
186	0xbc63b17d	-0.013897297
187	0xbe17976b	-0.14803855
188	0xbd389cfe	-0.045071594
189	0xbc0db746	-0.008649653
190	0x3d34c8cb	0.044136804
191	0x3d845c47	0.06462913
192	0xbd0be003	-0.03414918
193	0x3e5425e8	0.20717585
194	0x3dcebafa	0.10094257
195	0x3b3be644	0.0028671185
196	0xbc474106	-0.012161499
197	0xbe498f1c	-0.19683498
198	0xbe0ec28c	-0.13941401
199	0xbc35609c	-0.011070397
200	0x3dc00ce6	0.0937746
201	0xbd12915a	-0.03578315
202	0x3d258378	0.04040858
203	0x3ed7f148	0.4217627
204	0xbbbe87e4	-0.0058145393
205	0x3d0695b3	0.032857608
206	0x3d297446	0.041370653
207	0x3dce5d7c	0.100764245
208	0x3c755edb	0.014976229
209	0xbce79973	-0.028271412
210	0x3c3a9f17	0.011390469
211	0xbd3d7f7c	-0.046264157
212	0x3e290c5a	0.16508618
213	0xbda0a9b2	-0.07844867
214	0xbdb8356d	-0.08994565
215	0xbed342a4	-0.4126178
216	0xbcc23fc0	-0.023712039
217	0x3d7059f8	0.05867955
218	0x3c2a7aac	0.010405224
219	0x3d1f4b00	0.038889885
220	0xbc31978a	-0.010839352
221	0xbd8dcd29	-0.06923897
222	0x3cc9310b	0.024559518
223	0x3e0f6495	0.14003213
224	0x3d6fdf18	0.05856237
225	0x3d7525c1	0.059850458
226	0xbbc5d4f4	-0.006037349
227	0x3d2d4b3d	0.04230808
228	0x3ce10fcd	0.027473355
229	0x3dfb97e3	0.122848295
230	0x3e67d394	0.22639304
231	0xb9b9b74b	-0.00035422514
232	0xbdcb08a2	-0.09913756
233	0xbdd561f5	-0.104190744
234	0x3c758b9b	0.014986898
235	0xbedbff00	-0.42967987
236	0xbd0aa443	-0.03384806
237	0xbd53b15a	-0.051682808
238	0xbdc75873	-0.09733667
239	0xbdaeeef7	-0.08541673
240	0x3d04c731	0.032416526
241	0x3baff16e	0.005369357
242	0xbd8ececf	-0.06973039
243	0xba1515e2	-0.000568716
244	0x3d9b4425	0.07581357
245	0xbd508843	-0.0509112
246	0x3d959edd	0.073056914
247	0x3ea2175a	0.3165844
248	0x3d27b2cc	0.040942
249	0xbb3f5da6	-0.0029200106
250	0x3c5c2f5e	0.013439028
251	0x3d48de94	0.049040392
252	0xbc8bf56b	-0.017084798
253	0x3cfe15d1	0.031016262
254	0xbc331995	-0.010931392
255	0xbdab9f53	-0.08379998

context_transformer_0/kq_shared_bottleneck/norm/mul;context_transformer_0/kq_shared_bottleneck/norm/add;context_transformer_0/attention/query/einsum/Einsum;context_transformer_0/attention/query/add;context_transformer_0/attention/value/einsum/Einsum;context_transformer_0/attention/query/add/ReadVariableOp/resource;context_transformer_0/attention/Mul;context_transformer_0/attention/Mul/y f4 [32]
0	0xbd1f5c89	-0.038906608
1	0xbd8989a3	-0.06715705
2	0xbd9db7c3	-0.077010654
3	0x3d5b5ae8	0.05355349
4	0x3bcfa3b0	0.0063366517
5	0xbd6a4113	-0.057190966
6	0x3d80d696	0.06290929
7	0x3b7bacf7	0.0038402656
8	0x3e23a351	0.15980269
9	0x3d289e4a	0.04116658
10	0xbe079ad2	-0.13242653
11	0x3e15a95c	0.14615387
12	0xbe005052	-0.1253064
13	0x3d209fa6	0.039214753
14	0xbdb85a3c	-0.09001586
15	0x3e21a60d	0.15786
16	0x3e471527	0.19441663
17	0xbd086075	-0.033295114
18	0xbdbff3dc	-0.09372684
19	0xbe0af2b8	-0.13569152
20	0x3e476261	0.19471122
21	0xbe06d0fa	-0.13165656
22	0xbe2107d3	-0.15725641
23	0xbe2db5ea	-0.16963926
24	0x3dc0b300	0.094091415
25	0xbdbdefce	-0.09274255
26	0xbdad5041	-0.08462573
27	0x3ddd3d05	0.10802654
28	0xbdd86534	-0.10566178
29	0xbd99c6bf	-0.07508611
30	0x3de936c1	0.113873966
31	0x3e121811	0.14266993

context_transformer_0/kq_shared_bottleneck/norm/mul;context_transformer_0/kq_shared_bottleneck/norm/add;context_transformer_0/attention/query/einsum/Einsum;context_transformer_0/attention/query/add;context_transformer_0/attention/value/einsum/Einsum;context_transformer_0/attention/query/add/ReadVariableOp/resource;context_transformer_0/attention/Mul;context_transformer_0/attention/Mul/y1 f4 [32, 32]
0	0xbd85d3b0	-0.06534517
1	0x3ccaf6fa	0.02477597
2	0xbc891e87	-0.01673819
3	0xbce66875	-0.02812598
4	0xbcbb2391	-0.022844108
5	0xbc80f5f5	-0.015742281
6	0xbd613230	-0.054979503
7	0x3c313d8f	0.010817899
8	0xbc46a9bf	-0.012125432
9	0x3d5b2389	0.053500686
10	0xbccb5175	-0.024819115
11	0xbdaa0604	-0.08301929
12	0x3c4294b8	0.011876278
13	0x3d065d08	0.032803565
14	0xbbfd846d	-0.0077367336
15	0xbc3b749a	-0.011441374
16	0xbc4e7bf5	-0.012602796
17	0x3c8c9593	0.017161166
18	0x3ce3cb43	0.027806884
19	0x3da2f44c	0.07956752
20	0xbcb8fe15	-0.022582093
21	0xbcf1569c	-0.029460244
22	0xbc85cbbb	-0.016332498
23	0x3daeb215	0.0853006
24	0xbcf69d77	-0.030104382
25	0xbd83c1b6	-0.06433432
26	0xbc0ce0cd	-0.008598519
27	0xbdefce63	-0.11709287
28	0xbd00ab6d	-0.031413484
29	0x3caf0591	0.021364959
30	0x3d105fb8	0.035247535
31	0x3d00690b	0.031350177
32	0xbca8fd88	-0.020628706
33	0xbe539465	-0.20662077
34	0xbba6057f	-0.005066573
35	0xbca64eab	-0.020301184
36	0xbcce28fa	-0.025166024
37	0x3d7468b4	0.059670165
38	0xbcad99cb	-0.021191498
39	0x3cbea784	0.023273237
40	0xbcefb6c6	-0.029261958
41	0x3ce160cc	0.027511977
42	0xbcff8ca9	-0.031195002
43	0x3c5649fb	0.013079162
44	0x3d3cf427	0.04613128
45	0x3cb4e513	0.022081887
46	0x3cc0157b	0.023447743
47	0xbbb84214	-0.0056231115
48	0xbcf9f197	-0.030510707
49	0x3c76eb01	0.015070678
50	0x3cb42295	0.021989146
51	0x3b979397	0.0046257484
52	0xbe0fdfb8	-0.14050186
53	0x3cf953ef	0.03043553
54	0xbc5c0540	-0.013428986
55	0x3cc2e2cd	0.023789788
56	0xbcd1065d	-0.02551573
57	0xbc8fcc88	-0.017553583
58	0xbcfd4344	-0.030915864
59	0xbd10dec4	-0.035368696
60	0xbc9bacbb	-0.019003263
61	0x3cdc032f	0.026856987
62	0x3cef0056	0.029174965
63	0xbce33934	-0.027737238
64	0x3c213ba8	0.009840883
65	0xbd7e3e58	-0.062071174
66	0x3d2d23a0	0.042270303
67	0x3b3d3534	0.0028870823
68	0xbcbfd833	-0.023418522
69	0xbc4e186e	-0.012579067
70	0xbd125a0a	-0.0357304
71	0x3bf1fd4b	0.007384931
72	0xbcc5b20b	-0.024132749
73	0x3d27e9b7	0.040994372
74	0x3bd0749f	0.0063615586
75	0x3d4d73e7	0.05015936
76	0x3d33773a	0.043814875
77	0x3ca69c3e	0.020338174
78	0x3c45eb82	0.012080075
79	0xbc9f5bbe	-0.019452926
80	0xbc597189	-0.013271698
81	0x3c4c3467	0.012463666
82	0x3d08f7a3	0.03343929
83	0x3b9533a6	0.004553276
84	0xbcf6c9b1	-0.03012547
85	0x3bf8586e	0.007578901
86	0xbc114de8	-0.008868672
87	0xbd69ff41	-0.057128195
88	0xbcd1e22b	-0.02562054
89	0xbd2ff1fa	-0.042955376
90	0xbcdb47dc	-0.026767664
91	0xbd10b520	-0.035328984
92	0xbc1a5bbb	-0.009421284
93	0x3d102dc2	0.035199888
94	0x3bf117b1	0.0073575606
95	0x3ccf2cf6	0.025289994
96	0x3c3bbe65	0.011458968
97	0x3e5388e0	0.20657682
98	0xbc1fb919	-0.009748721
99	0x3cc54cd3	0.024084484
100	0x3cc07063	0.02349109
101	0xbce8617f	-0.028366802
102	0x3d269f6b	0.040679377
103	0xbcdbf188	-0.02684857
104	0x3c3b9848	0.011449881
105	0xbcdd7209	-0.027031915
106	0x3ccd0504	0.025026806
107	0xbd0ec2f1	-0.03485388
108	0xbd5b1a76	-0.053492032
109	0xbc85b832	-0.016323183
110	0xbbb3b915	-0.00548471
111	0xbbff42a5	-0.007789927
112	0x3d22deef	0.039763387
113	0xbc9c606b	-0.019088944
114	0xbc6f8485	-0.014618997
115	0xbb7aa289	-0.003824385
116	0x3e1b9574	0.1519373
117	0xbcaf7d2d	-0.021421993
118	0x3c96f306	0.01842643
119	0xbb8eabe9	-0.0043539894
120	0x3ce495c4	0.027903445
121	0x3cad9fff	0.021194456
122	0x3cef9c8f	0.029249458
123	0x3ca4ab74	0.020101286
124	0x3c5d35df	0.013501613
125	0xbcc5be99	-0.024138736
126	0xbca151de	-0.019692358
127	0x3c456b58	0.0120495185
128	0xb934d0ba	-0.00017243894
129	0x3e464b7c	0.19364733
130	0x3c098449	0.008393356
131	0x3b86c083	0.0041123047
132	0x3b938cd1	0.0045028706
133	0xbd873835	-0.066025175
134	0xbce73d0f	-0.028227357
135	0xbc883128	-0.016625002
136	0x3b54bbf9	0.0032460673
137	0x3cda2653	0.026629603
138	0x3c962bec	0.01833149
139	0xbdbbcb6b	-0.09169658
140	0xbd17e9b9	-0.03708813
141	0x39c8b610	0.0003828262
142	0xbcfa2932	-0.030537222
143	0xbc1531d0	-0.0091061145
144	0x3ca38a70	0.019963473
145	0xbb137401	-0.0022499564
146	0x3c02c568	0.007981636
147	0x3d8ae230	0.06781423
148	0x3df894d8	0.12137765
149	0xbd512a4d	-0.05106573
150	0x3bb68a8c	0.0055707153
151	0x3d50c4e5	0.050969023
152	0x3bef5a7c	0.0073044877
153	0xbd43ad81	-0.047772888
154	0x3cceef2d	0.025260532
155	0xbdba8c25	-0.09108762
156	0xbc826f95	-0.015922347
157	0xbc1844e5	-0.0092937695
158	0x3bb74657	0.005593102
159	0x3d496609	0.049169574
160	0xbc8a3d37	-0.016874893
161	0xbe674e59	-0.22588481
162	0xbbe6f08e	-0.0070477193
163	0xbc8c1af7	-0.017102702
164	0xbca4137f	-0.020028828
165	0x3d6a6704	0.05722715
166	0xba121598	-0.0005572676
167	0x3d18a61a	0.03726778
168	0xbcc63f64	-0.024200149
169	0x3b4ba0ed	0.003107126
170	0xbcb6bbac	-0.022306286
171	0x3d95bfb4	0.07311955
172	0x3d5d01c9	0.05395678
173	0x39df2312	0.00042560004
174	0x3cbec1b8	0.023285732
175	0x3a81deff	0.0009908377
176	0xbd15d1cd	-0.036577035
177	0x3c3a2653	0.011361676
178	0x3c73a260	0.014870256
179	0xbd0ad83c	-0.033897623
180	0xbe4717b8	-0.19442642
181	0x3ce74763	0.028232282
182	0xbccfc2c7	-0.025361432
183	0xbc82b37b	-0.015954724
184	0xbca5cda3	-0.020239657
185	0xb8840845	-6.295791e-05
186	0xbcde9817	-0.027172131
187	0x3d58c209	0.05291942
188	0xbb1963f2	-0.002340552
189	0x3ca14715	0.019687215
190	0x3c8e4b07	0.01736976
191	0xbd6527c1	-0.055946115
192	0x3cb31182	0.021858934
193	0xbddb71ce	-0.10715066
194	0x3cdaeb0a	0.026723403
195	0x3c3c3f41	0.01148969
196	0x3cb235bc	0.021754138
197	0x3d0fb167	0.035081293
198	0x3d09b026	0.033615254
199	0x3b2aee42	0.0026081954
200	0x3cd80061	0.026367368
201	0xbd8d4d67	-0.06899529
202	0xbb62777e	-0.0034556086
203	0x3dce2320	0.10065293
204	0x3c286b79	0.01027953
205	0xbcaf7948	-0.021420136
206	0x3ca3bf39	0.019988643
207	0x3d2ccb39	0.042185996
208	0xba969140	-0.001148738
209	0xbbd69512	-0.0065485323
210	0xbcf1bd7a	-0.029509295
211	0xbd9a8911	-0.075456746
212	0xbd358a2e	-0.04432123
213	0x3d2f2654	0.042761162
214	0x3cb77a65	0.02239723
215	0xbd7f3ce1	-0.062313918
216	0x3bce3d99	0.006293964
217	0x3d984f9f	0.074370615
218	0x39fab407	0.00047817847
219	0x3df11b3a	0.11772771
220	0x3ca29bc0	0.019849658
221	0xbcc0e00d	-0.023544336
222	0xbd05b0a4	-0.03263916
223	0xbc259ab0	-0.010107681
224	0xbca9c67b	-0.020724526
225	0x3e16f083	0.14740185
226	0xbd5e8b8e	-0.05433231
227	0x3c3e5348	0.0116165355
228	0x3c6e5621	0.014546902
229	0xbd0dcc12	-0.034618445
230	0x3c6d74dc	0.0144931935
231	0xbcc676f4	-0.024226643
232	0x3b34c362	0.0027582278
233	0x3c7b6692	0.015344279
234	0x3c60ddc6	0.01372475
235	0xbdf2430f	-0.11829197
236	0xbd06b4bd	-0.03288721
237	0x3bd00ad7	0.0063489485
238	0x3afeffd9	0.0019454911
239	0x39b3ecba	0.00034317916
240	0x3cb8360c	0.022486709
241	0xbc822402	-0.01588631
242	0xb9d7fc21	-0.00041195846
243	0x3d4423fe	0.047885887
244	0x3dc77f79	0.0974111
245	0xbd09c664	-0.033636466
246	0x3b455723	0.0030111752
247	0x3d897828	0.06712371
248	0x3cad8ecc	0.021186255
249	0xbd399fe8	-0.045318514
250	0x3c6875ec	0.014188271
251	0xbda6111c	-0.08108732
252	0x3bdaa1a5	0.0066721016
253	0xbc12563f	-0.0089316955
254	0x3bc51fd2	0.006015756
255	0x3cf96292	0.03044251

context_transformer_0/ffn_layer_0/intermediate_dense/einsum/Einsum;context_transformer_0/ffn_layer_0/intermediate_dense/Relu;context_transformer_0/ffn_layer_0/intermediate_dense/add f4 [32]
0	0xbf014283	-0.50492114
1	0xbea1a7c0	-0.31573296
2	0xbec85d84	-0.39133847
3	0xbed068bd	-0.4070491
4	0xbeaa14a4	-0.33218873
5	0xbd8cacad	-0.06868873
6	0xbe6f62b0	-0.2337749
7	0xbf013409	-0.50470024
8	0xbdfa872b	-0.122328125
9	0xbe376e69	-0.17913212
10	0xbf022141	-0.5083199
11	0xbebaf703	-0.3651658
12	0xbed36a12	-0.41291863
13	0xbe882408	-0.2658999
14	0xbe7bf647	-0.24605666
15	0xbebda770	-0.37041807
16	0xbeaf8a11	-0.34285024
17	0xbeaf1288	-0.34193826
18	0xbee518eb	-0.44745573
19	0xbdd4cf0c	-0.103910536
20	0xbecef68b	-0.40422472
21	0xbee01679	-0.43767145
22	0xbef105b5	-0.47074667
23	0xbe2d8ea8	-0.1694895
24	0xbe201505	-0.15633018
25	0xbe67c2ab	-0.22632854
26	0xbebb9a34	-0.36641085
27	0xbe69a96b	-0.22818534
28	0xbee0d8dc	-0.4391545
29	0xbdc057b3	-0.09391727
30	0xbe900770	-0.28130674
31	0xbe2da06a	-0.16955724

context_transformer_0/attention/norm/mul;context_transformer_0/attention/norm/add;context_transformer_0/ffn_layer_0/intermediate_dense/einsum/Einsum;context_transformer_0/ffn_layer_0/intermediate_dense/Relu;context_transformer_0/ffn_layer_0/intermediate_dense/add f4 [32, 32]
0	0xbdc3356a	-0.09531672
1	0x3f25b5f6	0.64730775
2	0x3e29dd08	0.16588223
3	0xbe468c12	-0.1938937
4	0xbdd2b690	-0.10288727
5	0x3e989cad	0.29807034
6	0x3dddcfa2	0.108306184
7	0xbd1120e2	-0.03543175
8	0x3e73b633	0.23799972
9	0x3e6532ae	0.22382614
10	0xbe3f7475	-0.18696769
11	0x3ef71122	0.4825526
12	0xbc575d2e	-0.013144774
13	0xbe01ff68	-0.12695086
14	0xbdf7df0e	-0.12103091
15	0xbe2bf5b3	-0.16792946
16	0xbcb4cfdb	-0.02207177
17	0x3e9fb2ba	0.31191045
18	0x3e46a349	0.19398226
19	0xbdce8f48	-0.100859225
20	0x3cf9084e	0.030399468
21	0xbd0eab83	-0.034831535
22	0xbdaf1519	-0.08548946
23	0x3e7ce5cf	0.2469704
24	0xbda8fa41	-0.08250857
25	0x3dc2687b	0.09492584
26	0x3e95f33e	0.29287142
27	0x3d8516a6	0.064984605
28	0xbe026cb3	-0.12736778
29	0xbe38fb27	-0.18064557
30	0x3c0b684e	0.008508755
31	0xbea55564	-0.3229171
32	0x3c9127e0	0.01771921
33	0x3dee9c46	0.116509005
34	0xbe3e544f	-0.18586849
35	0x3e299d17	0.16563831
36	0x3e7dcfe0	0.2478633
37	0x3ebd9e07	0.37034628
38	0xbde7273a	-0.11286779
39	0xbe0bd2d3	-0.13654642
40	0x3e2e5a00	0.1702652
41	0x3c2f7e0a	0.010711202
42	0x3c9d97d6	0.01923744
43	0x3cd38e1d	0.0258246
44	0xbe1a1d7f	-0.15050314
45	0x3e039243	0.12848763
46	0x3e5291d5	0.20563443
47	0xbe077b93	-0.13230734
48	0x3ce44809	0.02786638
49	0x3c613842	0.013746323
50	0x3dbb682e	0.0915073
51	0x3dc572ab	0.09641012
52	0x3e13a8f8	0.14419925
53	0xbc29a70c	-0.0103547685
54	0xbd506a31	-0.050882522
55	0x3ece2c68	0.40268254
56	0xbc2e9fc5	-0.010658209
57	0xbdd9dc8a	-0.106377676
58	0x3dd9e28d	0.10638914
59	0x3ea6098b	0.32429156
60	0x3d88a7e8	0.066726506
61	0xbec08121	-0.37598518
62	0xbec3d45f	-0.38247964
63	0xbdb13155	-0.086519875
64	0xbd8eb3e4	-0.06967905
65	0x3ed724f1	0.42020372
66	0xbcf850a8	-0.030311897
67	0x3e9536a7	0.2914326
68	0x3ece87c9	0.4033797
69	0x3ee68aca	0.45027763
70	0x3d3d70d0	0.046250165
71	0xbda0f71a	-0.07859631
72	0xbd55bcb5	-0.05218192
73	0x3c914442	0.017732743
74	0xbe4d16bb	-0.20028202
75	0x3e65683e	0.22403046
76	0x3c39ed24	0.011348043
77	0x3e5b53ad	0.21418639
78	0xbd74a2f4	-0.059725717
79	0x3b011eea	0.0019702264
80	0x3ca9e261	0.020737829
81	0x3e3edae9	0.18638195
82	0x3e740efb	0.2383384
83	0x3dcdfe68	0.1005829
84	0x3caf448a	0.021394987
85	0x3cf2c2ef	0.029633967
86	0x3d77888b	0.060432952
87	0x3f0a966d	0.5413578
88	0xbdfb6971	-0.12275971
89	0xbb4ef5cb	-0.003157961
90	0x3d372d69	0.04472104
91	0x3d84c89a	0.06483574
92	0x3e6b7c58	0.22996652
93	0xbe6b9014	-0.2300418
94	0xbec32eb9	-0.38121584
95	0x3dcab44f	0.098976724
96	0xbb9f195e	-0.004855319
97	0x3edf154a	0.4357093
98	0xbd08c3e9	-0.03338996
99	0x3ea1e6fa	0.31621534
100	0xbe9dbcaf	-0.30808017
101	0x3e5b9002	0.21441653
102	0xbdb5ee67	-0.08883362
103	0xbe914ad0	-0.2837739
104	0x3d804486	0.0626307
105	0xbe05561e	-0.13021132
106	0x3e47be6f	0.19506238
107	0x3e144af7	0.14481722
108	0xbe18241b	-0.14857523
109	0x3e8d059e	0.27543348
110	0xbd11f84e	-0.035637192
111	0xbe7aa54c	-0.24477118
112	0xbdc615f0	-0.09672153
113	0x3df56186	0.11981492
114	0x3d7f98fc	0.062401757
115	0x3e436841	0.19082738
116	0x3d6734b9	0.056446765
117	0xbe852d8d	-0.26011315
118	0xbdb6ccb7	-0.08925765
119	0x3e93b7a3	0.2885104
120	0xbe8a32a4	-0.2699176
121	0x3e020da0	0.1270051
122	0x3e16dca6	0.14732608
123	0x3e883679	0.2660406
124	0xbdb6686d	-0.089066364
125	0xbe612d59	-0.21989955
126	0xbd5649ac	-0.052316353
127	0x3cf374f5	0.029718855
128	0xbead4455	-0.33841196
129	0x3e8c37b7	0.27386257
130	0x3e11e80f	0.1424868
131	0x3d30cd00	0.043164253
132	0x3e581cf6	0.21104798
133	0x3ef98bbf	0.4873943
134	0x3e38136b	0.17976157
135	0x3e8b987f	0.27264783
136	0xbef5c02e	-0.47998184
137	0xbd35c383	-0.044375908
138	0xbd95f476	-0.07322018
139	0x3ecdd566	0.40201873
140	0x3d9420a7	0.072327904
141	0x3ef90dc5	0.48643318
142	0xbe8bb8f3	-0.27289543
143	0x3e2e9f26	0.17052898
144	0xbcb63de9	-0.022246318
145	0x3e3b9afa	0.18320838
146	0x3ea397df	0.31951806
147	0xbd943350	-0.072363496
148	0x3dce7290	0.10080445
149	0x3d35dd17	0.0444003
150	0x3d16ef6c	0.036849424
151	0x3e66c236	0.22535023
152	0xbe904499	-0.28177336
153	0x3e09bde3	0.13451342
154	0xbd772183	-0.060334694
155	0x3e0f04ae	0.13966629
156	0x3dc156a9	0.09440357
157	0xbe4796da	-0.19491139
158	0xbecfcfc9	-0.40588215
159	0x3dee6df8	0.116420686
160	0xbeb47704	-0.35247052
161	0x3d44d7f7	0.048057523
162	0x3d5008a0	0.050789475
163	0xbe051074	-0.12994558
164	0xbb2df621	-0.002654441
165	0x3e822e00	0.2542572
166	0x3eb41525	0.35172382
167	0x3ec7d428	0.3902905
168	0xbeefcceb	-0.46836028
169	0xbd293569	-0.0413107
170	0xbc73d02a	-0.014881173
171	0x3dc17db4	0.09447804
172	0x3e83741e	0.25674528
173	0xbe4083b3	-0.1880024
174	0xbe38f2f1	-0.18061425
175	0x3e903370	0.28164244
176	0xbe36546f	-0.17805646
177	0x3df7a932	0.12092818
178	0x3de9e169	0.11419947
179	0xbe524e0d	-0.20537587
180	0xbe769b7a	-0.24082747
181	0x3e0f1168	0.13971484
182	0x3e523d96	0.20531306
183	0x3dbd2a5c	0.09236595
184	0xbda00f67	-0.07815438
185	0x3e195816	0.14975008
186	0xbd8846b2	-0.06654109
187	0x3df2133f	0.11820077
188	0x3e01028d	0.1259863
189	0x3c9e259b	0.019305041
190	0x3cf03665	0.029322812
191	0x3c39b4b5	0.011334588
192	0xbd42ab0c	-0.047526404
193	0x3d9f2b42	0.07771923
194	0x3e840c1e	0.25790495
195	0xbe0b06ec	-0.13576859
196	0xbbb503e6	-0.0055241464
197	0x3eb08813	0.34478816
198	0x3e90c1ae	0.28272766
199	0x3e2ae2ab	0.1668803
200	0x3e9ed7cc	0.31024015
201	0xbe406fbe	-0.18792626
202	0xbe23a840	-0.15982151
203	0x3da18c62	0.07888104
204	0x3e5df7d5	0.21676572
205	0xbe5c9e64	-0.21544796
206	0xbe7c8078	-0.24658382
207	0x3e31d3ba	0.17365924
208	0xbdaf676b	-0.08564647
209	0x3e25f3ab	0.16206233
210	0x3e5e8b0f	0.21732734
211	0x3d8dd165	0.069247045
212	0x3e24e69f	0.161036
213	0x3d94983a	0.072555974
214	0xbe276410	-0.16346765
215	0x3e3fe257	0.18738686
216	0xbe98797f	-0.29780194
217	0xbd08fd27	-0.03344455
218	0x3e922ebf	0.2855129
219	0x3f1ca086	0.6118244
220	0xbe06b8af	-0.13156389
221	0xbe505e43	-0.20348458
222	0x3c968a00	0.01837635
223	0x3c371aa9	0.01117579
224	0x3c400e55	0.011722167
225	0x3eeca4a7	0.4621937
226	0x3dede558	0.116160095
227	0x3e837306	0.25673693
228	0xbe42bf2d	-0.1901824
229	0x3e68cd60	0.22734594
230	0x3e31eaa1	0.1737466
231	0xbce585a7	-0.028017832
232	0xbeb39112	-0.35071617
233	0xbdf3c660	-0.119030714
234	0x3e381a94	0.17978889
235	0x3f13b0f5	0.5769189
236	0x3e2cd62e	0.16878578
237	0x3f23b670	0.6395025
238	0xbe60a3d5	-0.21937497
239	0x3ddc589b	0.10759088
240	0x3b8be545	0.0042692744
241	0x3e0ab3bb	0.13545124
242	0x3e8fca8f	0.28084227
243	0x3e638810	0.22219872
244	0x3dfc9047	0.12332206
245	0xbd8d4b53	-0.068991326
246	0x3e967d6d	0.29392567
247	0x3eb6c0e8	0.3569405
248	0xbe857f3e	-0.2607364
249	0x3e256ca5	0.16154726
250	0xbb5a1b2a	-0.0033280351
251	0x39c9e704	0.00038509828
252	0x3cca8d75	0.024725655
253	0xbe6a8108	-0.22900784
254	0x3da07437	0.07834666
255	0x3ca7ed1d	0.020498807

context_transformer_0/ffn_layer_1/intermediate_dense/einsum/Einsum;context_transformer_0/ffn_layer_1/intermediate_dense/Relu;context_transformer_0/ffn_layer_1/intermediate_dense/add f4 [32]
0	0x3df2d951	0.11857856
1	0xbd9f581a	-0.07780476
2	0xbe815e21	-0.25267127
3	0xbdc67700	-0.09690666
4	0xbea3436c	-0.31887376
5	0xbe63a42c	-0.22230595
6	0xbe85af67	-0.26110384
7	0xbe2ed016	-0.17071566
8	0xbdfd061f	-0.12354683
9	0xbe889f43	-0.26684007
10	0x3d8f9533	0.07010879
11	0xbf05c5c4	-0.5225489
12	0xbe4a3f0f	-0.19750617
13	0xbd190f9d	-0.037368406
14	0xbe231e48	-0.1592952
15	0xbc91a5ec	-0.017779313
16	0x3e0da73d	0.13833328
17	0xbe59ef51	-0.21282698
18	0xbdd32598	-0.10309905
19	0xbe440253	-0.19141512
20	0xbdab5037	-0.08364909
21	0xbd3613c0	-0.04445243
22	0xbd91bfa4	-0.07116631
23	0x3a762789	0.00093900465
24	0xbe01da61	-0.12680961
25	0x3e7efa7c	0.2490024
26	0xbe2461fd	-0.16053005
27	0xbe624d17	-0.2209972
28	0xbe308239	-0.17237176
29	0xbdc7df1a	-0.0975935
30	0xbe270c67	-0.16313325
31	0xbd9cab3d	-0.076498486

context_transformer_0/ffn_layer_0/norm/mul;context_transformer_0/ffn_layer_0/norm/add;context_transformer_0/ffn_layer_1/intermediate_dense/einsum/Einsum;context_transformer_0/ffn_layer_1/intermediate_dense/Relu;context_transformer_0/ffn_layer_1/intermediate_dense/add f4 [32, 32]
0	0xbe8c6258	-0.2741878
1	0x3d68f7ea	0.056877054
2	0xbccb9194	-0.02484969
3	0xbda008b8	-0.07814163
4	0x3ecdb4ca	0.40176994
5	0x3e1f237d	0.15540881
6	0x3e66bb3d	0.22532363
7	0x3ec7977a	0.38982755
8	0xbe545876	-0.2073687
9	0xbdb59fe4	-0.08868387
10	0xbcf346d7	-0.029696865
11	0x3e067340	0.13129902
12	0x3e89c77a	0.2691
13	0x3cf770d0	0.03020516
14	0xbdc93da0	-0.09826207
15	0x3e0ce83c	0.13760465
16	0xbe6147bf	-0.22000025
17	0xbd87c51f	-0.06629395
18	0x3ec790cb	0.38977656
19	0x3d70dc33	0.05880375
20	0x3b883977	0.004157241
21	0x3cd5a9c9	0.026081936
22	0xbb5dd235	-0.0033847217
23	0x3cab1173	0.020882344
24	0xbda508b7	-0.08058303
25	0x3e60f79f	0.2196946
26	0xbd1589f7	-0.036508527
27	0x3ea97166	0.3309433
28	0xbe2dc1ca	-0.16968456
29	0xbc2bd9f3	-0.010488975
30	0xbf00d149	-0.50319344
31	0x3dbb193f	0.09135675
32	0x3c852e44	0.016257413
33	0x3d0726a8	0.03299585
34	0x3d2ec6a4	0.042669907
35	0xbb3540f7	-0.002765713
36	0xbc0d98c5	-0.00864238
37	0x3ba33889	0.0049811048
38	0x3bea3702	0.0071476707
39	0xbcd632af	-0.026147215
40	0x3c8109f9	0.015751826
41	0xbc9fd891	-0.019512447
42	0x3c83c905	0.016087065
43	0x3d40abe6	0.047038935
44	0xbb425449	-0.0029652289
45	0xbcc3bb9e	-0.023893174
46	0xbc4d9585	-0.012547855
47	0x3ca45d09	0.020063894
48	0x3c052ad4	0.008127887
49	0xbc31ce60	-0.010852426
50	0x3d2e212b	0.0425121
51	0x3c5b4c47	0.013384885
52	0xbc0259bd	-0.007955966
53	0xbbf4e6d2	-0.007473805
54	0xbbde42d5	-0.0067828693
55	0x3d64781d	0.05577861
56	0x3ad3b261	0.0016151184
57	0xbcae9ff3	-0.021316504
58	0xbcb96c3b	-0.022634616
59	0xbcca6101	-0.024704458
60	0xbd29859f	-0.041387197
61	0xbd190e62	-0.037367232
62	0xbc80c8da	-0.015720773
63	0x3cbb6d6a	0.022879321
64	0xbd928634	-0.071545035
65	0xbb9c8f5a	-0.004777831
66	0x3e641f00	0.2227745
67	0x3e9771f6	0.29579133
68	0xbe02e94f	-0.12784313
69	0x3e3bb02e	0.18328926
70	0xbde8a6a0	-0.11359906
71	0x3e613c4c	0.21995658
72	0xbe27a2f1	-0.16370751
73	0xbe1e9d54	-0.15489703
74	0xbd5b8657	-0.053594913
75	0x3c3eb6f7	0.011640302
76	0xbe1e3f46	-0.15453824
77	0x3e906cfb	0.28208145
78	0xbd0f5e4a	-0.03500203
79	0x3d303724	0.043021336
80	0x3c29ae22	0.010356458
81	0x3e0a0e6c	0.13482064
82	0x3e0946d3	0.13405924
83	0xbc66e01f	-0.014091521
84	0x3da62921	0.081133135
85	0x3dc6dd0d	0.09710131
86	0x3ec12531	0.37723687
87	0x3e06a28f	0.13147949
88	0x3e2daa61	0.16959526
89	0x39f9a042	0.00047612382
90	0xbc764682	-0.015031459
91	0x3c7fee35	0.015620758
92	0xbee41d80	-0.44553757
93	0xbe0e0e05	-0.13872536
94	0xbcbff7e6	-0.023433637
95	0x3e460097	0.19336163
96	0x3b5f6c11	0.0034091512
97	0x3c9846fe	0.01858854
98	0x3d1b9c11	0.037990633
99	0x3c040bc4	0.008059446
100	0xbd0a0f03	-0.033705723
101	0x3cbda57b	0.023150196
102	0x3c75134b	0.014958213
103	0x3c7b8dde	0.015353648
104	0x3afb11b1	0.0019155053
105	0xbbbfb852	-0.00585083
106	0x3c1c905a	0.0095559005
107	0x3d22b504	0.03972341
108	0x3bb7347b	0.005590973
109	0x3c8ced58	0.017203018
110	0x3ce64be0	0.028112352
111	0x3c76e889	0.015070089
112	0xbc8887d2	-0.016666327
113	0x3cdc6b8c	0.026906751
114	0x3ccf81aa	0.025330383
115	0x3d20a6cd	0.039221574
116	0xbb2d1c8f	-0.0026414727
117	0x39d2d47c	0.00040212634
118	0xbc1c3d95	-0.009536167
119	0x3d86c613	0.065807484
120	0xbc4be52b	-0.012444775
121	0x3c1ded40	0.009639084
122	0x3b95fab3	0.004577005
123	0x3d232a62	0.03983534
124	0xba8f9621	-0.0010954776
125	0xbd1acdab	-0.037793797
126	0xbcb4491f	-0.022007523
127	0xbc6c7d2b	-0.014434139
128	0xbde4960e	-0.11161433
129	0x3c4677d7	0.012113533
130	0xbdb1a3d3	-0.08673825
131	0x3de8894b	0.113543116
132	0x3ea16f94	0.3153044
133	0x3e52b535	0.20576937
134	0x3de1dd27	0.110285096
135	0xbe298bc8	-0.16557229
136	0x3deb09e6	0.11476497
137	0x3d0895f9	0.03334615
138	0x3e859239	0.26088122
139	0x3e4524c8	0.19252312
140	0x3b881780	0.004153192
141	0x3e85eb8c	0.2615627
142	0x3da6af1d	0.08138869
143	0xbb251da3	-0.0025194667
144	0x3ccd65a2	0.025072876
145	0xbe37b3c4	-0.17939669
146	0xbe00d04c	-0.12579459
147	0x3e63a9f0	0.22232795
148	0x3e6ec35b	0.2331671
149	0x3eaa65b9	0.33280733
150	0xbce90492	-0.028444562
151	0x3e90ec79	0.28305414
152	0x3d73b4f8	0.059498757
153	0xbe595c01	-0.21226503
154	0x3e158849	0.1460277
155	0x3e258c89	0.16166891
156	0x3e04ec54	0.12980777
157	0x3c2c4bf7	0.010516158
158	0xbe9a04ba	-0.3008173
159	0xbdf0f66d	-0.11765752
160	0xbd46a1f5	-0.048494298
161	0x3e17b97f	0.14816855
162	0xbe543b81	-0.20725824
163	0x3eae6573	0.34061775
164	0xbda7afa9	-0.081878014
165	0x3e21124b	0.15729634
166	0x3a53c8ee	0.0008078952
167	0xbdb872a4	-0.09006241
168	0x3e5ca237	0.21546255
169	0xbd6d072a	-0.05786816
170	0xbe3355e7	-0.17513238
171	0x3c863426	0.016382288
172	0xbdf1a844	-0.11799672
173	0xbd0bd847	-0.034141805
174	0xbb86add4	-0.0041100774
175	0xbce2d53c	-0.027689569
176	0x3d224e4e	0.03962546
177	0x3d3ab433	0.045582008
178	0xbdf89a07	-0.121387534
179	0x3cbe1171	0.023201676
180	0x3e310a55	0.17289098
181	0xbcedc082	-0.029022459
182	0xbdfd2e21	-0.12362314
183	0x3efaaf39	0.4896181
184	0xbdb4ef96	-0.0883476
185	0xbd59fc73	-0.05321927
186	0x3d32b87e	0.043632977
187	0xbe091ac0	-0.1338911
188	0x3d6d5e91	0.057951514
189	0xbcd967b5	-0.02653871
190	0xbe60388e	-0.21896574
191	0xbe888a3c	-0.26667964
192	0x3e15c3f2	0.14625528
193	0x3d835c18	0.0641405
194	0xbd885cca	-0.06658323
195	0xbc78ff7e	-0.015197633
196	0xbb019110	-0.0019770302
197	0xbe81669d	-0.252736
198	0xbd09fd7e	-0.033689015
199	0xbe1002b2	-0.14063528
200	0xbd05bff5	-0.032653768
201	0x3e6bace5	0.23015173
202	0xbcb89f1a	-0.022536803
203	0x3e8f874b	0.28032908
204	0xbd7d76e7	-0.061880972
205	0x3e117c1a	0.14207497
206	0x3e1a8405	0.15089424
207	0x3e23ec8f	0.16008209
208	0x3e7c93a3	0.24665694
209	0xbdbf2c4b	-0.0933462
210	0xbe269f93	-0.1627181
211	0xbc9c42e1	-0.01907486
212	0xbe1d38ef	-0.1535375
213	0xbdf6a331	-0.12042845
214	0x3dab5d1e	0.0836737
215	0x3ef7133a	0.48256856
216	0xbe6cc77f	-0.23122977
217	0x3e5c8595	0.21535333
218	0x3cadda63	0.021222299
219	0xbe103c9e	-0.14085624
220	0x3deb608e	0.11493026
221	0x3e211e5f	0.15734242
222	0xbeb8a625	-0.36064258
223	0xbf10e701	-0.56602484
224	0x3d903194	0.07040706
225	0x3d02ec17	0.031963434
226	0x3d9f548d	0.07779799
227	0x3d9cb448	0.076515734
228	0x3e20d928	0.15707839
229	0xbd1ee76f	-0.03879493
230	0xbd41d270	-0.04731983
231	0x3c8db9b2	0.01730046
232	0x3d1c086f	0.03809398
233	0x3c16e8ff	0.009210824
234	0x39b29743	0.00034063504
235	0x3db0cb56	0.08632533
236	0xbd9fd4b6	-0.07804243
237	0x3e42c40a	0.19020095
238	0xbda36255	-0.0797774
239	0xbce0d82e	-0.027446833
240	0xbe6ca39a	-0.23109284
241	0x3d1a7a0c	0.03771405
242	0x3d6a31bb	0.057176333
243	0x3dac0086	0.08398537
244	0x3dcb7f46	0.09936385
245	0xbdcbff80	-0.09960842
246	0xbe00dc19	-0.1258396
247	0x3e075ed5	0.1321977
248	0xbd10ddb3	-0.03536768
249	0x3e266f69	0.16253437
250	0xbcb5dc09	-0.022199648
251	0xbdb0b22e	-0.08627735
252	0xbd9606a3	-0.073254846
253	0x3de79f80	0.11309719
254	0xbc53c95c	-0.012926426
255	0x3dc504ed	0.0962008

context_transformer_0/ffn_layer_2/intermediate_dense/einsum/Einsum;context_transformer_0/ffn_layer_2/intermediate_dense/Relu;context_transformer_0/ffn_layer_2/intermediate_dense/add f4 [32]
0	0xbd9d63f3	-0.076850794
1	0xbdc846b9	-0.09779114
2	0xbaf4fd28	-0.0018691169
3	0xbe418168	-0.18897021
4	0xbe8179af	-0.2528815
5	0xbd2f647f	-0.04282045
6	0xbea18db2	-0.31553417
7	0xbe129b87	-0.14317141
8	0xbefc832d	-0.4931883
9	0xbe0ec318	-0.1394161
10	0xbe52dbf3	-0.20591716
11	0xbdeeed81	-0.11666394
12	0xbdba59d2	-0.09099163
13	0xbe62402b	-0.2209479
14	0xbe34de2e	-0.1766288
15	0xbe1cb553	-0.15303545
16	0xbe828775	-0.2549397
17	0xbe0555d6	-0.13021025
18	0xbe84671c	-0.25859916
19	0xbe7e1364	-0.24812084
20	0xbe0faf54	-0.14031726
21	0xbde4957b	-0.11161324
22	0xbd60e4b0	-0.054905593
23	0xbeb5dd06	-0.3552019
24	0xbe790a62	-0.24320367
25	0xbe9ae34f	-0.30251548
26	0xbdcaac48	-0.09896141
27	0xbe103349	-0.14082064
28	0xbe80e2a8	-0.25172925
29	0xbe371abf	-0.17881297
30	0xbdd78405	-0.105232276
31	0x3d5f5281	0.05452204

context_transformer_0/ffn_layer_1/norm/mul;context_transformer_0/ffn_layer_1/norm/add;context_transformer_0/ffn_layer_2/intermediate_dense/einsum/Einsum;context_transformer_0/ffn_layer_2/intermediate_dense/Relu;context_transformer_0/ffn_layer_2/intermediate_dense/add f4 [32, 32]
0	0x3e2c7cd8	0.16844499
1	0x3e097296	0.13422617
2	0xbd9e9ed2	-0.07745136
3	0xbe11072c	-0.14162892
4	0xbdb54970	-0.08851898
5	0xbdee0c8e	-0.11623488
6	0x3e48bed9	0.19604053
7	0x3e26752c	0.16255635
8	0x3e48fafa	0.1962699
9	0x3e8af845	0.2714254
10	0x3d08a129	0.03335682
11	0x3e867333	0.26259765
12	0x3def6095	0.116883434
13	0xbd925704	-0.07145503
14	0x3de44a07	0.11146932
15	0xbc55a8ec	-0.013040762
16	0x3e083c0f	0.1330416
17	0x3daac547	0.08338409
18	0xbd1a4e7a	-0.037672497
19	0xbd85dc10	-0.06536114
20	0xbd7bc44c	-0.0614665
21	0xbe66d590	-0.22542405
22	0x3ba48ead	0.005021891
23	0x3de67d20	0.112543344
24	0xbe1323df	-0.14369152
25	0x3ea34758	0.31890368
26	0x3de33d7d	0.11095712
27	0x3dad9a56	0.08476703
28	0xbdd7f5ea	-0.10544951
29	0xbcf2aaff	-0.029622553
30	0x3d8d6164	0.069033414
31	0xbe121340	-0.14265156
32	0x3d1c2c1a	0.038127996
33	0xbe24934f	-0.16071819
34	0x3d360dfb	0.044446927
35	0xbce696b2	-0.028148029
36	0xbcb0ce67	-0.021582795
37	0xbd361900	-0.044457436
38	0xbe447967	-0.19186936
39	0x3e6990ad	0.22809096
40	0x3dfd08d7	0.12355202
41	0xbe78513a	-0.24249735
42	0xbc328e14	-0.010898132
43	0xbd573694	-0.052542284
44	0xbe3e6e10	-0.18596673
45	0x3c244564	0.01002631
46	0xbd2de012	-0.04245002
47	0x3da29a4a	0.079395846
48	0xbebb741f	-0.3661203
49	0x3e60313e	0.21893784
50	0xbdb1f769	-0.08689768
51	0x3c79c8f9	0.0152456695
52	0x3e499344	0.19685084
53	0x3d8ade59	0.06780691
54	0xbc4623f1	-0.01209353
55	0x3db3d983	0.087817214
56	0xbd65659a	-0.056005098
57	0xbd2c3b0e	-0.042048506
58	0xbe46f599	-0.19429626
59	0x3d13916c	0.036027357
60	0x3c528a7f	0.012850403
61	0x3dedf6f5	0.11619369
62	0xbdba372f	-0.09092557
63	0x3dec88ac	0.115495056
64	0x3e036a94	0.12833625
65	0x3d1cfaad	0.038325
66	0x3e04a54f	0.12953685
67	0xbd803ce9	-0.06261618
68	0xbe62c556	-0.2214559
69	0x3c8fcf67	0.017554952
70	0xbe81968d	-0.25310174
71	0xbcf69d62	-0.030104343
72	0xbe8b45f4	-0.27201807
73	0xbe4ef4dc	-0.20210594
74	0xbd9defd0	-0.07711756
75	0xbccd8ae4	-0.025090642
76	0xbe263914	-0.16232711
77	0xbbb1851e	-0.00541748
78	0x3d787d1b	0.060666185
79	0x3d06e9c7	0.03293779
80	0xbd81c8f5	-0.06337158
81	0x3d164191	0.036683623
82	0xbdea693a	-0.114458516
83	0x3d8c8386	0.068610236
84	0xbd7c09bc	-0.06153272
85	0xbd06e070	-0.032928884
86	0xbe9644a0	-0.29349232
87	0x3dbae017	0.09124773
88	0xbd9f7718	-0.07786387
89	0x3e0df571	0.1386316
90	0x3de947de	0.11390661
91	0xbda51dcf	-0.08062326
92	0xbc5a4b91	-0.0133236805
93	0x3da7c371	0.08191574
94	0x3dba25c6	0.09089236
95	0x3d6582f3	0.056033086
96	0xbcf3c666	-0.02975769
97	0x3d94ffa1	0.0727532
98	0xbe456fdc	-0.19280952
99	0x3e3ae2b3	0.18250541
100	0xbd954bfd	-0.07289884
101	0x3a3d4a5a	0.0007220857
102	0xbe49bc29	-0.19700684
103	0xbdd6f442	-0.10495807
104	0xbe4c4b7b	-0.19950669
105	0xbd8f4757	-0.06996029
106	0xbdf8e3ed	-0.121528484
107	0x3d8eb7ac	0.069686264
108	0xbd53cf84	-0.051711574
109	0xbe2a6e3c	-0.16643614
110	0x3daeabb5	0.08528844
111	0x3d82da1f	0.063892595
112	0x3d90931f	0.07059311
113	0x3e4ab4ac	0.19795483
114	0x3e128a6b	0.14310615
115	0xbd0fc9ec	-0.035104677
116	0xbe14adcb	-0.14519422
117	0x3eceddaf	0.40403506
118	0xbe2e1b50	-0.17002606
119	0x3e4e37e5	0.2013851
120	0x3d86d34e	0.06583272
121	0xbe642f86	-0.22283754
122	0x3e03f508	0.12886441
123	0x3d7aac2d	0.061199356
124	0x3d87c856	0.06630008
125	0xbba20b3b	-0.0049451864
126	0x3de0f7bd	0.10984752
127	0xbdb80e9f	-0.08987164
128	0x3ebce0e3	0.36890325
129	0x3d1479d2	0.03624899
130	0xbe1854a6	-0.14876041
131	0x3e3566e2	0.17715028
132	0xbbef5490	-0.007303782
133	0x3d57c4ae	0.052677803
134	0xbde56181	-0.11200238
135	0xbe93510e	-0.28772777
136	0xbdd6d0d9	-0.10489053
137	0x3e16ff0e	0.14745733
138	0xbdbdce1e	-0.09267829
139	0x3ddbe3d5	0.10736815
140	0xbd55d0d9	-0.052201126
141	0xbe13ef53	-0.14446764
142	0x3d8776b8	0.06614441
143	0x3e52de64	0.20592648
144	0x3d4bffae	0.049804382
145	0xbd211550	-0.039326966
146	0xbdc8ce08	-0.09804922
147	0x3c52c824	0.0128651
148	0xbe5e86bd	-0.21731086
149	0x3e32e5b0	0.17470431
150	0xbdcc043b	-0.099617444
151	0x3e36c789	0.17849554
152	0x3dd597f7	0.104293756
153	0xbe48833b	-0.1958131
154	0x3d9afe7d	0.07568071
155	0x3deaa672	0.11457528
156	0x3df3caea	0.11903937
157	0x3e4560c0	0.19275188
158	0xbd788d7d	-0.06068181
159	0xbda27c8f	-0.07933914
160	0x3cfbd771	0.030742379
161	0x3de13e4c	0.1099821
162	0xbe26106c	-0.16217202
163	0xbe0e0abc	-0.13871282
164	0xbd54e625	-0.051977295
165	0x3e856bbf	0.26058766
166	0x3e6661fa	0.22498313
167	0x3e4a036c	0.19727868
168	0xbe5511c4	-0.20807558
169	0x3e6e5f6f	0.23278593
170	0xbe43cca4	-0.19121033
171	0x3e30f10d	0.17279454
172	0x3e9e0e7a	0.3087042
173	0x3e17faaa	0.14841715
174	0x3e479cb9	0.19493379
175	0xbdf89190	-0.12137139
176	0x3de3fea6	0.11132555
177	0x3e3ce5b0	0.18446994
178	0xbe3d07b3	-0.18459968
179	0xbe379ad3	-0.17930155
180	0xbe1d1a73	-0.15342121
181	0xbd72f68e	-0.059317164
182	0x3e27ba45	0.1637965
183	0x3e1ba847	0.15200911
184	0xbd75a64a	-0.05997304
185	0x3daa1b35	0.083059706
186	0xbdcd96ba	-0.100385144
187	0xbd53648c	-0.05160956
188	0x3daf0eff	0.08547782
189	0x3e8a2441	0.26980785
190	0x3d2921ba	0.04129193
191	0x3e05759c	0.13033146
192	0x3e073ff8	0.13207996
193	0x3c20b3c3	0.0098084835
194	0xbc9cfcbb	-0.01916348
195	0x3ea83e6b	0.3286012
196	0x3e2e429d	0.17017598
197	0xbd605a50	-0.05477363
198	0xbceadd87	-0.028670086
199	0xbd71ca1d	-0.05903064
200	0x3df099d7	0.117480926
201	0xba6c0d36	-0.0009004654
202	0x3d715b35	0.058924872
203	0xbc32b517	-0.010907433
204	0xbd32837b	-0.04358242
205	0x3ddddb71	0.10832871
206	0x3dba404e	0.090942964
207	0x3dee3136	0.1163048
208	0xbd284b22	-0.041087277
209	0x3c46cfa5	0.012134467
210	0x3d2e7576	0.04259249
211	0x3decc5a2	0.11561133
212	0x3bca183f	0.006167441
213	0x3e8c1922	0.27362925
214	0xbe2d1d3f	-0.16905688
215	0x3e19854a	0.14992252
216	0x3dafb39d	0.085791804
217	0xbe9e87cc	-0.3096298
218	0x3d836c25	0.06417111
219	0xbd919088	-0.07107645
220	0x3d72d6c7	0.05928686
221	0x3e0aa6f4	0.1354025
222	0xbb921ce5	-0.004459011
223	0x3db2f5f5	0.08738319
224	0x3db75a07	0.08952718
225	0x3e274962	0.16336587
226	0xbd8158c7	-0.06315761
227	0x3cea9af9	0.02863835
228	0x3d15c712	0.0365668
229	0x3e0609b9	0.13089646
230	0x3e87706b	0.26452956
231	0xbdc25a83	-0.0948992
232	0xbe852990	-0.26008272
233	0x3e62cc14	0.22148162
234	0xbdfc0624	-0.12305859
235	0x3e88f5c3	0.2675
236	0x3dd22041	0.10260058
237	0x3dbdeccb	0.0927368
238	0xbd0c4bcb	-0.03425197
239	0x3d37709d	0.04478513
240	0x3e5e3db9	0.21703233
241	0x3e4720cb	0.19446103
242	0x3d3c65f4	0.045995668
243	0x3d1f6fa1	0.038924817
244	0xbd812588	-0.06305987
245	0xbe232388	-0.15931523
246	0xbd4eea71	-0.05051655
247	0x3c1a1ffd	0.009407041
248	0xbdc0091a	-0.09376736
249	0x3ca0885c	0.019596271
250	0x3bf9436d	0.0076069147
251	0x3cbbccc5	0.02292479
252	0x3d7a0718	0.06104192
253	0x3dbedded	0.09319673
254	0x3e01d0a7	0.12677251
255	0x3e708ff0	0.23492408

context_transformer_0/ffn_layer_3/intermediate_dense/einsum/Einsum;context_transformer_0/ffn_layer_3/intermediate_dense/Relu;context_transformer_0/ffn_layer_3/intermediate_dense/add f4 [32]
0	0xbe4edfda	-0.2020258
1	0xbd759f55	-0.059966404
2	0xbd25b5aa	-0.04045645
3	0xbde44364	-0.11145666
4	0xbe1b44cf	-0.15162967
5	0xbdddd856	-0.108322784
6	0xbe4d54d4	-0.2005189
7	0xbdfa33d0	-0.12216914
8	0xbdf619b6	-0.12016623
9	0xbdd3c261	-0.10339809
10	0xbe90c623	-0.28276166
11	0xbcf036fa	-0.02932309
12	0xbda57531	-0.08078993
13	0xbc815de8	-0.015791848
14	0xbe6df761	-0.23238899
15	0xbe6a0021	-0.22851612
16	0xbe39a525	-0.18129404
17	0xbe1e52ba	-0.15461245
18	0xbdf9daf5	-0.12199966
19	0xbdb8c1a3	-0.09021308
20	0xbe049c93	-0.12950353
21	0xbdd9e2aa	-0.10638936
22	0xbe27c40b	-0.16383378
23	0xbd8d2419	-0.06891651
24	0xbddd4fa2	-0.108062044
25	0xbe1672ae	-0.14692184
26	0x3cc08678	0.02350162
27	0xbe98d97e	-0.29853433
28	0xbe44c14a	-0.19214359
29	0xbdc00a12	-0.09376921
30	0xbe5a8699	-0.21340407
31	0xbdab6edd	-0.08370755
